ECGR 4127 TINY ML/Project1/training/Output/model.tflite (tflite, 47032 bytes, 5 tensors)

tfl.pseudo_qconst1 i1 [1, 16] scale=0.0046069 zero_point=0
00000000: 6ed2 1fd3 dbbb 7f72 ec60 254c 5f11 7f5e
0.506759 -0.21191739 0.14281389 -0.2073105 -0.17045529 -0.3178761 0.5850763 0.5251866
-0.09213799 0.44226238 0.17045529 0.3501244 0.43765548 0.0783173 0.5850763 0.43304858

tfl.pseudo_qconst3 i1 [16, 2048]
00000000: b05f ebdc 0a03 97e5 07ad f3ce e3e7 31e6
00000010: 9ecb 4196 fc71 cec3 b962 6387 0a53 3520
00000020: 3982 b83d 12fe e945 6dde 3a0a a09d 390c
00000030: a9e1 ae23 c7d0 a8ea ed41 a110 0aef 95a9
00000040: 9941 92e5 99e0 62e8 860b e1bf d86a 19d6
00000050: 1f49 f332 4e14 53b4 2903 d0e7 1b7b dfc4
00000060: 44d6 54fe 118b b0c0 1c49 240b cb0e 13cd
00000070: b1bf 64ae c270 8512 2709 a47f 644c 13b9
00000080: de0e 643d b76a ee0c c039 e943 0439 92d1
00000090: 9d36 f24f 24b8 5d6b fbf8 015c 1cb3 1565
000000a0: 1ea2 60d4 fd14 0b42 2d4a 28cd 44f3 ade7
000000b0: 2614 a15a 8ce2 4d1d 3208 f2c3 1816 b661
000000c0: 19fc 5a11 cb73 95bf ccdd 1f92 d965 dee2
000000d0: df60 e714 e8cf a53e e969 2b59 64e1 0fbf
000000e0: a8fe e46d 2893 069a e9ca 6c39 b3c5 7702
000000f0: 8e61 01b9 b4bb 9e0d cfd9 14f7 134d 645e
-80 95 -21 -36 10 3 -105 -27
7 -83 -13 -50 -29 -25 49 -26
-98 -53 65 -106 -4 113 -50 -61
-71 98 99 -121 10 83 53 32
57 -126 -72 61 18 -2 -23 69
109 -34 58 10 -96 -99 57 12
-87 -31 -82 35 -57 -48 -88 -22
-19 65 -95 16 10 -17 -107 -87
-103 65 -110 -27 -103 -32 98 -24
-122 11 -31 -65 -40 106 25 -42
31 73 -13 50 78 20 83 -76
41 3 -48 -25 27 123 -33 -60
68 -42 84 -2 17 -117 -80 -64
28 73 36 11 -53 14 19 -51
-79 -65 100 -82 -62 112 -123 18
39 9 -92 127 100 76 19 -71
-34 14 100 61 -73 106 -18 12
-64 57 -23 67 4 57 -110 -47
-99 54 -14 79 36 -72 93 107
-5 -8 1 92 28 -77 21 101
30 -94 96 -44 -3 20 11 66
45 74 40 -51 68 -13 -83 -25
38 20 -95 90 -116 -30 77 29
50 8 -14 -61 24 22 -74 97
25 -4 90 17 -53 115 -107 -65
-52 -35 31 -110 -39 101 -34 -30
-33 96 -25 20 -24 -49 -91 62
-23 105 43 89 100 -31 15 -65
-88 -2 -28 109 40 -109 6 -102
-23 -54 108 57 -77 -59 119 2
-114 97 1 -71 -76 -69 -98 13
-49 -39 20 -9 19 77 100 94

tfl.pseudo_qconst5 i1 [32, 3, 3, 16]
00000000: a454 2f98 ec30 0a42 5149 6ab0 daf5 d909
00000010: cba7 2cbb ba5a 0383 e742 b630 de5d 2139
00000020: ddb4 0297 8218 2820 bb81 9b69 5a92 9ab5
00000030: c243 aa92 0c3c 1962 f4ef 247a e1cc bd4c
00000040: 1c26 a804 ec37 6c75 39c1 5c07 4853 658a
00000050: 7595 f9a6 03a3 ddc4 26e7 0287 ef97 5a67
00000060: e813 ff28 367e 34e6 5d58 c3f5 a8d7 a1c2
00000070: c1f2 751d 923f 3e81 aa30 d937 1a9d c1d1
00000080: 3663 e6e4 e2b2 fb91 3561 076b 4163 3d9f
00000090: 6c25 6642 4bab 648e c06c c652 da3b 8e43
000000a0: 59cf 9654 a12b a8cf 70b8 4989 70bb 999e
000000b0: 3703 b648 2e3e b339 cc34 7349 966d 4c3c
000000c0: 6b7d 59a7 3b13 fdb3 791c 9179 b2d5 9ed5
000000d0: ad3b 2a2a 120b ebdc 8bf9 d4ca 0f79 d06e
000000e0: 4293 2140 ba6c 67fd b646 f4f5 664b ba24
000000f0: 17eb 6eff 9f32 bb59 dde5 b585 4655 040c
-92 84 47 -104 -20 48 10 66
81 73 106 -80 -38 -11 -39 9
-53 -89 44 -69 -70 90 3 -125
-25 66 -74 48 -34 93 33 57
-35 -76 2 -105 -126 24 40 32
-69 -127 -101 105 90 -110 -102 -75
-62 67 -86 -110 12 60 25 98
-12 -17 36 122 -31 -52 -67 76
28 38 -88 4 -20 55 108 117
57 -63 92 7 72 83 101 -118
117 -107 -7 -90 3 -93 -35 -60
38 -25 2 -121 -17 -105 90 103
-24 19 -1 40 54 126 52 -26
93 88 -61 -11 -88 -41 -95 -62
-63 -14 117 29 -110 63 62 -127
-86 48 -39 55 26 -99 -63 -47
54 99 -26 -28 -30 -78 -5 -111
53 97 7 107 65 99 61 -97
108 37 102 66 75 -85 100 -114
-64 108 -58 82 -38 59 -114 67
89 -49 -106 84 -95 43 -88 -49
112 -72 73 -119 112 -69 -103 -98
55 3 -74 72 46 62 -77 57
-52 52 115 73 -106 109 76 60
107 125 89 -89 59 19 -3 -77
121 28 -111 121 -78 -43 -98 -43
-83 59 42 42 18 11 -21 -36
-117 -7 -44 -54 15 121 -48 110
66 -109 33 64 -70 108 103 -3
-74 70 -12 -11 102 75 -70 36
23 -21 110 -1 -97 50 -69 89
-35 -27 -75 -123 70 85 4 12

tfl.pseudo_qconst7 i1 [16, 3, 3, 16]
00000000: 1f0c 2b26 c517 b286 a66c 41e6 d84f 3af2
00000010: e8f4 3c00 68e6 9085 5996 e50a 8540 8ec5
00000020: 57cd acd1 88ca 286d 45e5 906a 7cf5 da1b
00000030: 3e57 9be8 b23e 4e04 17af 6273 a966 0ae4
00000040: ee8e 0618 6465 6b87 d1b2 ad3f 2006 4033
00000050: 894e 007c 9d1d 8502 da2e 376e a05f 7b0d
00000060: dde4 9ad4 0afc 9cbb ab8c b47a 0832 2c0c
00000070: 23c6 f494 eed8 ce3d 6f6f c6a4 3bb5 c757
00000080: 3be6 4a6c 1ff8 7d52 bc93 f8f7 9d88 8140
00000090: 8b4a fbbb 346d bf0f 3563 a1c1 6a73 d66d
000000a0: 569c 3712 3790 fe56 4729 1d79 2d68 f1c1
000000b0: 1ba2 7c7f 85cc 05d8 5b27 21e7 c116 1061
000000c0: 8996 00ca d05c 3536 56ab 48b6 9871 104c
000000d0: 2813 a5f0 d33f baea a42f fb56 f761 694b
000000e0: ff42 9a51 46b0 1d48 d890 d74d a842 eb40
000000f0: cec4 e310 6393 19ef 13d2 487b 11b4 2f3b
31 12 43 38 -59 23 -78 -122
-90 108 65 -26 -40 79 58 -14
-24 -12 60 0 104 -26 -112 -123
89 -106 -27 10 -123 64 -114 -59
87 -51 -84 -47 -120 -54 40 109
69 -27 -112 106 124 -11 -38 27
62 87 -101 -24 -78 62 78 4
23 -81 98 115 -87 102 10 -28
-18 -114 6 24 100 101 107 -121
-47 -78 -83 63 32 6 64 51
-119 78 0 124 -99 29 -123 2
-38 46 55 110 -96 95 123 13
-35 -28 -102 -44 10 -4 -100 -69
-85 -116 -76 122 8 50 44 12
35 -58 -12 -108 -18 -40 -50 61
111 111 -58 -92 59 -75 -57 87
59 -26 74 108 31 -8 125 82
-68 -109 -8 -9 -99 -120 -127 64
-117 74 -5 -69 52 109 -65 15
53 99 -95 -63 106 115 -42 109
86 -100 55 18 55 -112 -2 86
71 41 29 121 45 104 -15 -63
27 -94 124 127 -123 -52 5 -40
91 39 33 -25 -63 22 16 97
-119 -106 0 -54 -48 92 53 54
86 -85 72 -74 -104 113 16 76
40 19 -91 -16 -45 63 -70 -22
-92 47 -5 86 -9 97 105 75
-1 66 -102 81 70 -80 29 72
-40 -112 -41 77 -88 66 -21 64
-50 -60 -29 16 99 -109 25 -17
19 -46 72 123 17 -76 47 59

tfl.pseudo_qconst9 i1 [16, 3, 3, 3]
00000000: 4450 7fa9 6b83 11c6 ba47 bfd5 10a3 9aab
00000010: 6ee6 234e df5a a86b 01a8 2a1f 787b 6aeb
00000020: d201 0643 79c6 1fc1 168e 13dd bfb8 b6ba
00000030: 814d 9a18 7ade 6e33 b33a 4fa0 d22c 5f3c
00000040: 7f1a c3f9 9b87 c0a7 cda4 1d5e d648 c665
00000050: ce0a 6743 0e0c 4b5c 561b 4d9e 5881 f877
00000060: 3750 e2a0 9d2f ea64 8edf 1531 6e93 59a6
00000070: 7fa3 ee7c eaf4 22a3 b422 91dd b064 ea30
00000080: 9eb4 0440 40ea 2202 8691 bc8e 3538 0521
00000090: 4281 8ba8 ba3b 8869 a010 5e4a 4a39 2488
000000a0: e6f6 14e4 f56a 8113 9c1c 6ad0 57d0 739e
000000b0: 1a6e 4df0 a467 3cd7 5c57 46f3 e1ab b49f
000000c0: c795 1fe6 d738 6f85 943a e158 3e7b 4881
000000d0: da85 18c7 4a24 8588 a1f5 da68 a6e9 25b9
000000e0: 58fa a802 c98f 991e 86bc 8396 8c0e 7f4f
000000f0: bbf8 4b76 523d 519d c97f 9466 e86f 2a40
68 80 127 -87 107 -125 17 -58
-70 71 -65 -43 16 -93 -102 -85
110 -26 35 78 -33 90 -88 107
1 -88 42 31 120 123 106 -21
-46 1 6 67 121 -58 31 -63
22 -114 19 -35 -65 -72 -74 -70
-127 77 -102 24 122 -34 110 51
-77 58 79 -96 -46 44 95 60
127 26 -61 -7 -101 -121 -64 -89
-51 -92 29 94 -42 72 -58 101
-50 10 103 67 14 12 75 92
86 27 77 -98 88 -127 -8 119
55 80 -30 -96 -99 47 -22 100
-114 -33 21 49 110 -109 89 -90
127 -93 -18 124 -22 -12 34 -93
-76 34 -111 -35 -80 100 -22 48
-98 -76 4 64 64 -22 34 2
-122 -111 -68 -114 53 56 5 33
66 -127 -117 -88 -70 59 -120 105
-96 16 94 74 74 57 36 -120
-26 -10 20 -28 -11 106 -127 19
-100 28 106 -48 87 -48 115 -98
26 110 77 -16 -92 103 60 -41
92 87 70 -13 -31 -85 -76 -97
-57 -107 31 -26 -41 56 111 -123
-108 58 -31 88 62 123 72 -127
-38 -123 24 -57 74 36 -123 -120
-95 -11 -38 104 -90 -23 37 -71
88 -6 -88 2 -55 -113 -103 30
-122 -68 -125 -106 -116 14 127 79
-69 -8 75 118 82 61 81 -99
-55 127 -108 102 -24 111 42 64
